dynamic_schedule/model.pth (torch, 82100 bytes, 6 tensors)

fc1.weight f4 [128, 24]
0	0x3e894a7e	0.26814646
1	0xbe12e4b8	-0.14345062
2	0x3dd3ae13	0.103359364
3	0x3ebe6a18	0.37190318
4	0x3c817e20	0.015807211
5	0xbf2a7508	-0.66584826
6	0x3e1ee5fb	0.15517418
7	0x3d61225c	0.05496441
8	0xbe71b0d5	-0.23602612
9	0xbd647258	-0.05577311
10	0xbeba57fc	-0.36395252
11	0xbe88d8e0	-0.26727962
12	0xbd83b05e	-0.06430124
13	0xbdd9e89c	-0.1064007
14	0xbe31799b	-0.17331545
15	0x3e2a481c	0.1662907
16	0x3e8eff98	0.27929378
17	0x3ea61bf3	0.324432
18	0x3cc8d733	0.024516677
19	0xbe1b5c76	-0.1517199
20	0x3ec2d53e	0.38053316
21	0xbecba689	-0.39775494
22	0x3e8ab315	0.27089754
23	0xbe5923cd	-0.21205063
24	0x3d3dc3ba	0.046329238
25	0x3e546a9e	0.20743796
26	0x3ea57ea7	0.3232319
27	0x3e67dd51	0.2264302
28	0x3df65240	0.12027407
29	0xbec51c1c	-0.38498008
30	0xbe7db73d	-0.24776931
31	0x3d124979	0.0357146
32	0xbde45905	-0.11149792
33	0x3e6aade9	0.22917904
34	0x3c93a38f	0.018022327
35	0x3df8ed2b	0.12154611
36	0xbca2ccc7	-0.019873036
37	0x3d2e5593	0.04256208
38	0x3cd281f0	0.025696725
39	0xbe4f57ed	-0.20248385
40	0x3e9264f1	0.28592637
41	0xbec8acd4	-0.39194357
42	0x3e8c58b1	0.27411416
43	0xbeb6ca7e	-0.35701364
44	0xbe1c9ec3	-0.15294938
45	0xbe779ae7	-0.24180184
46	0x3e916b1b	0.28402027
47	0x3d869d8f	0.06573021
48	0x3e17abed	0.14811678
49	0x3bf7453d	0.0075460956
50	0x3e75760a	0.2397081
51	0x3edf08d6	0.4356143
52	0xbdb59937	-0.08867114
53	0x3b2d41a4	0.002643683
54	0xbd67e107	-0.056611087
55	0xbd884ca5	-0.06655244
56	0x3e02c496	0.12770304
57	0x3e3e39b8	0.18576705
58	0xbe94ae34	-0.29039156
59	0xbe52409b	-0.20532458
60	0x3e78c6b8	0.24294555
61	0xbef0b19d	-0.47010508
62	0xbc24aa24	-0.01005033
63	0x3dbd9227	0.09256392
64	0xbaaec708	-0.0013334462
65	0xbdb0fcac	-0.08641943
66	0xbe501a32	-0.20322493
67	0x3e77ff37	0.2421845
68	0xbe6115cd	-0.21980973
69	0x3ea4b2de	0.32167715
70	0xbe80cdf5	-0.25157133
71	0xbc8e78c5	-0.017391572
72	0x3dbc80d4	0.092042595
73	0xbeafa6a6	-0.3430683
74	0xbed82f11	-0.4222341
75	0xbebb7505	-0.36612716
76	0xbde948c0	-0.11390829
77	0xbef32af1	-0.474937
78	0xbdeb6a40	-0.11494875
79	0x3d822ab7	0.063558035
80	0xbe36b7c3	-0.17843537
81	0xbe511ec5	-0.20421894
82	0x3dabce2f	0.08388936
83	0x3d5c6379	0.053805802
84	0xbcec9070	-0.028877467
85	0x3ce5cdb8	0.028052196
86	0x3dbbcda2	0.09170081
87	0xbe442448	-0.19154465
88	0x3ed0bafd	0.4076766
89	0xbef55675	-0.47917524
90	0xbda65021	-0.08120752
91	0x3e5818a9	0.21103157
92	0xbe60f3ca	-0.21967998
93	0x3e00e531	0.1258743
94	0x3dbd1a86	0.092335746
95	0x3ebef66d	0.37297383
96	0xbe40b444	-0.18818766
97	0xbe97171b	-0.29509816
98	0x3d80ed8f	0.06295311
99	0x3e44fbff	0.19236754
100	0xbe829c8f	-0.2551007
101	0x3e5cdc00	0.21568298
102	0x3ecf019f	0.40430924
103	0x3c674e32	0.014117764
104	0x3e08d795	0.13363488
105	0xbeb3c5f6	-0.3511197
106	0x3e0c1250	0.1367886
107	0x3e16cc18	0.14726293
108	0x3cf94a51	0.030430945
109	0xbe95ac67	-0.29233095
110	0xbe6e6844	-0.23281962
111	0xbe88b967	-0.2670395
112	0xbde49abf	-0.11162328
113	0xbe869087	-0.2628214
114	0xbd3bc4ea	-0.04584209
115	0x3ebbcc7b	0.36679444
116	0x3ddc14f3	0.10746183
117	0x3e466525	0.19374521
118	0x3e35c883	0.1775227
119	0x3f018139	0.50587803
120	0xbe7fe184	-0.24988371
121	0x3d1054d6	0.035237156
122	0x3b4fcd5f	0.0031708104
123	0x3d9fe0d2	0.07806553
124	0xbf257550	-0.6463213
125	0x3e7d3685	0.24727829
126	0xbd8be49f	-0.068307154
127	0xbe0eb074	-0.13934499
128	0xbe322d9c	-0.17400211
129	0x3ebeb2ec	0.37245882
130	0x3d564452	0.05231125
131	0x3e6c4605	0.23073585
132	0xbdfa2eed	-0.12215982
133	0x3ce89e56	0.028395813
134	0x3e8e962e	0.27848953
135	0xbe9be635	-0.30449072
136	0x3eb450e4	0.35217965
137	0xbdc6bf1e	-0.097044215
138	0x3d8751c3	0.06607392
139	0x3d65ce6b	0.05610506
140	0x3e28b5c6	0.16475591
141	0x3e42c4c1	0.19020368
142	0x3da1863c	0.07886931
143	0xbd404395	-0.04693945
144	0xbd23c0e3	-0.039978873
145	0x3d7e9a12	0.06215865
146	0xbe4e3d8d	-0.20140667
147	0xbd7ecd2b	-0.062207382
148	0xbee52e99	-0.44762114
149	0x3e14c769	0.14529194
150	0x3d06ebc1	0.032939676
151	0xbeb65734	-0.35613406
152	0xbe043837	-0.1291207
153	0x3d71c035	0.059021194
154	0xbe2f1388	-0.17097294
155	0x3ebbf0a3	0.3670703
156	0x3ebf15a4	0.37321198
157	0xbba09a53	-0.0049012094
158	0x3e37deda	0.17956105
159	0x3e42cdd9	0.19023837
160	0x3d3b6504	0.045750633
161	0x3e94f069	0.29089668
162	0xbd927da2	-0.07152869
163	0xbe5dc026	-0.2165533
164	0x3deaf488	0.11472422
165	0x3e2063d6	0.15663084
166	0x3d2b798b	0.04186396
167	0xbe81c3e5	-0.25344768
168	0xbe4d33e3	-0.20039324
169	0xbed43340	-0.4144535
170	0x3ecf098c	0.4043697
171	0x3e199fe0	0.15002394
172	0xbe8f25d2	-0.27958542
173	0x3d9afca5	0.07567719
174	0x3dc73849	0.097275324
175	0x3e7c8b37	0.24662481
176	0x3c913665	0.017726133
177	0x3df0832a	0.117437676
178	0xbe4f851e	-0.20265624
179	0x3e81b961	0.25336745
180	0x3e62b13e	0.22137925
181	0xbe95cddb	-0.29258618
182	0x3e958acf	0.29207465
183	0x3e2b0207	0.16699992
184	0x3dfe9cdb	0.124322616
185	0x3da50931	0.08058394
186	0xbca0f779	-0.019649254
187	0x3ea1f050	0.31628656
188	0x3e00d9bb	0.12583058
189	0xbea65694	-0.3248793
190	0x3d207c1b	0.039180856
191	0xbcbfc1d8	-0.023407862
192	0xbe4a8395	-0.19776757
193	0xbf3d8352	-0.74028504
194	0x3e0e4adf	0.13895749
195	0xbdc82256	-0.09772174
196	0xbe82ca8e	-0.25545162
197	0xbe6d24e5	-0.23158605
198	0x3e0c321c	0.1369099
199	0x3d7b3eb1	0.061339084
200	0x3d2f4cf3	0.042797994
201	0xbe061e60	-0.13097525
202	0x3ddf4de2	0.10903527
203	0x3cf43ca0	0.029814065
204	0xbcd4de9f	-0.02598506
205	0x3eb0b1a3	0.34510526
206	0x3ea0964b	0.31364664
207	0xbe8172be	-0.25282854
208	0xbdebffd6	-0.11523406
209	0xbcacbfac	-0.02108749
210	0xbea8522c	-0.32875192
211	0xbe8717cf	-0.26385352
212	0x3d9c547e	0.07633303
213	0x3e06c919	0.1316265
214	0x3eb5cacc	0.35506284
215	0x3de49ece	0.11163102
216	0xbeb49215	-0.35267702
217	0x3e288f43	0.164609
218	0x3cf9ad53	0.030478155
219	0x3d6d5ab8	0.057947844
220	0x3c67c2a4	0.014145527
221	0x3e162801	0.14663698
222	0x3cb16a81	0.02165723
223	0x3ea9ed3a	0.33188802
224	0xbf027594	-0.5096066
225	0x3ca0e786	0.019641649
226	0x3dbc00ed	0.09179864
227	0xbdf271b6	-0.11838095
228	0x3eafb347	0.34316465
229	0x3e1bf8fb	0.15231697
230	0x3d4b7416	0.049671255
231	0x3d058865	0.03260078
232	0xbeb6e498	-0.35721278
233	0xbe986c78	-0.29770255
234	0xbe1ac795	-0.15115197
235	0x3cdbbc9d	0.026823336
236	0x3dc52632	0.09626426
237	0xbdf3f65c	-0.11912224
238	0xbdff529d	-0.12466929
239	0xbe833015	-0.2562262
240	0xbdcd5309	-0.10025603
241	0x3dc1bd59	0.09459943
242	0x3e091993	0.13388662
243	0xbde3fbe2	-0.11132027
244	0x3e0b28a3	0.1358972
245	0x3e87989c	0.2648362
246	0x3ca30ad9	0.019902634
247	0x3e731137	0.23737036
248	0x3ea432a9	0.320699
249	0xbeb08a3a	-0.34480458
250	0x3ddee503	0.10883524
251	0xbf7beeed	-0.98411447
252	0x3e1260bd	0.14294715
253	0xbeb8bef5	-0.3608319
254	0x3df8f552	0.12156166
255	0x3e87be72	0.26512486

fc1.bias f4 [128]
0	0x3e276997	0.16348873
1	0x3d161004	0.036636367
2	0x3e4fee86	0.20305833
3	0x3ebdd994	0.3708006
4	0x3c4942b3	0.012283969
5	0xbd72dcc6	-0.059292577
6	0xbd31679b	-0.043311696
7	0xbe9f4be8	-0.311126
8	0x3e0fbe3e	0.14037415
9	0x3e4c937b	0.19978134
10	0xbe888540	-0.26664162
11	0xbe17563e	-0.14778993
12	0xbe613a01	-0.21994783
13	0xbd965b9b	-0.07341691
14	0xbe30bfbb	-0.1726064
15	0x3de54722	0.11195208
16	0xbe3d2c34	-0.18473893
17	0xbe15772a	-0.14596239
18	0xbd8cdca0	-0.068780184
19	0xbd1f5792	-0.038901873
20	0x3e344778	0.17605388
21	0xbd35d0c3	-0.044388544
22	0x3d129045	0.035782117
23	0xbc50ecce	-0.012751771
24	0x3d8eb4d5	0.06968085
25	0x3dab294b	0.083574854
26	0xbe228182	-0.15869716
27	0xbe073b8f	-0.13206314
28	0xbd5d2a56	-0.053995453
29	0xbe20153c	-0.156331
30	0x3e09ab8c	0.13444346
31	0x3ce5529f	0.027993498
32	0xbebae865	-0.36505428
33	0x3e8e7dfe	0.278305
34	0xbde4d3c1	-0.11173201
35	0xbec3970e	-0.38201183
36	0x3e45c3b4	0.19312936
37	0x3e34a3d1	0.17640616
38	0xbde86abb	-0.11348482
39	0xbb39705b	-0.002829573
40	0x3e838300	0.25685883
41	0x3defe671	0.11713875
42	0x3d5cd2b9	0.0539119
43	0xbd5d44c2	-0.05402065
44	0x3e0fbecd	0.14037628
45	0x3e8e702e	0.2781996
46	0xba4f5636	-0.000790927
47	0x3e5002ac	0.20313519
48	0x3e8623fb	0.26199326
49	0xbda0e1e4	-0.07855585
50	0xbd74edf5	-0.059797246
51	0x3e9a4ef9	0.30138376
52	0x3e93cd14	0.288674
53	0xbe612b85	-0.21989258
54	0x3c99c633	0.018771267
55	0x3e4ae87e	0.19815251
56	0x3ece0f1e	0.40245908
57	0xbd9fb33a	-0.07797857
58	0x3d4f3cd8	0.050595134
59	0xbcdae7ff	-0.026721952
60	0xbe34410f	-0.17602943
61	0xbe41ceef	-0.18926595
62	0xbdb118cd	-0.086473085
63	0x3e83144b	0.2560142
64	0xbde28116	-0.110597774
65	0xbded3a9a	-0.11583443
66	0x3e7344cd	0.23756714
67	0xbd0e6e25	-0.03477301
68	0x3e3a294e	0.18179819
69	0x3df76fc1	0.12081862
70	0xbd846b50	-0.06465781
71	0x3df287b9	0.11842293
72	0xbd5a6bb0	-0.053325355
73	0xbdb8045e	-0.08985208
74	0x3e3cafb7	0.18426405
75	0xbe31e1b6	-0.17371258
76	0x3e2a098b	0.16605203
77	0xbdc1a5d4	-0.09455457
78	0xbe98f90a	-0.29877502
79	0x3d888633	0.066662215
80	0xbe9d3b6a	-0.30709392
81	0xbd76bf44	-0.060241
82	0x3e394899	0.180941
83	0x3e303a8c	0.17209834
84	0xbe8828c4	-0.26593602
85	0xbe15cc08	-0.14628613
86	0xbd004ee7	-0.031325247
87	0xbea3d203	-0.31996164
88	0xbde2e60f	-0.110790364
89	0x3c98fc70	0.01867506
90	0x3ed2bdee	0.4116053
91	0x3e6be176	0.23035225
92	0xbda1b662	-0.07896115
93	0xbd18ad0c	-0.037274405
94	0x3e720040	0.23632908
95	0xbcbebd6d	-0.023283685
96	0x3e6c268c	0.2306158
97	0xbd9f5363	-0.07779577
98	0x3e48c166	0.19605026
99	0x3ca39e3a	0.01997291
100	0xbe101ad5	-0.14072736
101	0xb98e4d1e	-0.00027141807
102	0xbd8dcb3c	-0.069235295
103	0xbdf88b22	-0.121359125
104	0x3eabfd14	0.3359152
105	0xbe1a5fe3	-0.1507564
106	0x3b3a4236	0.0028420812
107	0x3db61d10	0.08892262
108	0xbe1b2642	-0.15151313
109	0x3d52167e	0.05129098
110	0x3cdc266a	0.026873786
111	0x3e2252b3	0.1585186
112	0xbeb86f0b	-0.3602222
113	0x3dcd910a	0.1003743
114	0xbdff016a	-0.124514416
115	0xbdba8cf3	-0.09108915
116	0xbe1deaf5	-0.1542166
117	0xbbfbb859	-0.007681888
118	0x3cef762d	0.029231155
119	0x3d4c81be	0.04992842
120	0xbe582f88	-0.21111882
121	0xbc86279b	-0.016376307
122	0xbe46ad83	-0.19402127
123	0x3eaa3866	0.33246154
124	0x3d9f8e0c	0.07790765
125	0x3c44b33f	0.012005626
126	0x3c4e970b	0.012609254
127	0x3d2bd43a	0.041950442

fc2.weight f4 [128, 128]
0	0x3dc35032	0.095367804
1	0x3c898352	0.016786251
2	0xbda4f46d	-0.08054433
3	0xbc9d9b13	-0.019238984
4	0x3e5e3dd4	0.21703273
5	0x3e5f6f56	0.21819815
6	0x3e0ae3f9	0.13563527
7	0xbe52fc4a	-0.20604053
8	0x3dec4db9	0.11538262
9	0x3daf5785	0.08561615
10	0xbe91bee6	-0.28465956
11	0x3d8861f7	0.0665931
12	0x3e55bfd0	0.20873952
13	0x3d483636	0.048879825
14	0x3eba23d0	0.36355448
15	0x3ea4763c	0.32121456
16	0xbe2f1948	-0.17099488
17	0x3e088c9c	0.13334888
18	0x3d8fa912	0.070146695
19	0x3e1d3d4c	0.15355414
20	0x3d4e0292	0.05029542
21	0xbdc096a9	-0.09403736
22	0x3e29adc5	0.16570194
23	0x3e271a35	0.16318591
24	0x3e79065e	0.24318835
25	0x3e6aab95	0.22917016
26	0xbe10fe60	-0.14159536
27	0xbe0ece95	-0.13945992
28	0xbd807385	-0.062720336
29	0x3df7e828	0.12104827
30	0x3d9f750e	0.07785998
31	0x3e31d7d9	0.17367496
32	0xbef59dc2	-0.47971922
33	0x3d2a9964	0.04165019
34	0xbe1014be	-0.14070413
35	0x3c15141f	0.0090990355
36	0x3eacb1b0	0.33729315
37	0x3d5b31e5	0.05351438
38	0x3dafbf35	0.08581392
39	0x3e2d274f	0.16909526
40	0x3dc895ba	0.09794183
41	0x3e4acdc0	0.1980505
42	0x3e3a98bf	0.1822233
43	0x3eba4114	0.36377776
44	0x3d5c7d5b	0.053830486
45	0x3c58860e	0.013215555
46	0x3dd4f13d	0.10397575
47	0x3e1faeef	0.15594076
48	0x3db66a22	0.08906962
49	0x3dee9240	0.11648989
50	0x3e8acf76	0.27111405
51	0xbe005632	-0.12532881
52	0xbd6862a6	-0.056734703
53	0x3d4e977c	0.050437436
54	0xbe2e3542	-0.17012504
55	0xbce3ddd7	-0.027815742
56	0x3dc27989	0.09495837
57	0xbe3481df	-0.17627667
58	0xbd94174f	-0.07231008
59	0x3d847506	0.06467633
60	0xbeaaa39e	-0.33327955
61	0xbd6ed652	-0.05830986
62	0x3eb01f96	0.34399098
63	0x3d21240f	0.03934103
64	0x3e82c2e7	0.25539324
65	0xbe1eef16	-0.15520892
66	0x3d2ed32d	0.04268186
67	0xbe7ee69f	-0.24892662
68	0xbc68a902	-0.014200451
69	0x3e016f69	0.12640156
70	0x3d6af462	0.057361968
71	0x3e470f17	0.1943935
72	0x3e5f4689	0.21804251
73	0x3e8e252d	0.27762738
74	0x3d8cec22	0.06880976
75	0x3d914d47	0.070948176
76	0xbe641c53	-0.2227643
77	0x3f1a8d3e	0.6037177
78	0xbef275b7	-0.47355434
79	0xbdc473ac	-0.09592375
80	0x3e87ef9f	0.26550004
81	0x3e41c87a	0.18924132
82	0xbca7bf73	-0.020477032
83	0x3e019064	0.12652737
84	0x3e0d52cf	0.1380112
85	0x3eae9af4	0.34102595
86	0xbd9af2c6	-0.075658366
87	0xbfcb9cb0	-1.5907192
88	0x3eeb2665	0.4592773
89	0x3e424571	0.18971802
90	0x3e2a9d5e	0.16661593
91	0xbc83216f	-0.016007153
92	0x3f595f15	0.8491071
93	0x3ec28d7d	0.37998572
94	0x3e0b0f70	0.13580108
95	0xbe0f1d82	-0.139761
96	0x3eb3d20f	0.351212
97	0x3d19eb51	0.03757793
98	0x3e5de37b	0.21668808
99	0xbd5f4224	-0.054506436
100	0xbd28ff1a	-0.04125891
101	0x3c0e1891	0.008672849
102	0xbe12bca1	-0.14329769
103	0xbd12d90a	-0.035851516
104	0x3ecacd92	0.39609963
105	0x3e451533	0.19246368
106	0xbe362539	-0.17787637
107	0xbe8aa879	-0.2708166
108	0x3c86e119	0.016464757
109	0xbe03dae0	-0.12876463
110	0xbce0fe5f	-0.027465044
111	0x3db557c5	0.08854631
112	0xbdecf359	-0.115698524
113	0xbcdbd648	-0.026835576
114	0x3ee495a1	0.44645408
115	0x3c8f111f	0.017464219
116	0x3e2dadb5	0.16960795
117	0x3cff5edd	0.031173164
118	0x3d6988c7	0.057015207
119	0xbdd8f62a	-0.10593827
120	0x3b4ee4db	0.0031569514
121	0xbed683e1	-0.4189749
122	0xbd949c7f	-0.07256412
123	0x3e340020	0.17578173
124	0xbda7cbbc	-0.08193156
125	0x3eb3ae42	0.35093886
126	0xbd8bcabd	-0.06825779
127	0x3e3c675d	0.18398805
128	0xbe18bd99	-0.14916076
129	0xbe031952	-0.12802628
130	0x3db146de	0.08656095
131	0x3d07ae62	0.03312529
132	0xbed4776d	-0.41497365
133	0x3e47009b	0.19433825
134	0xbeae47dc	-0.340392
135	0x3da8e3e5	0.082465924
136	0xbfa5c1b1	-1.2949735
137	0x3e0712c9	0.1319076
138	0x3f5cda40	0.86270523
139	0xbd85c9f9	-0.06532664
140	0xbb5484cc	-0.0032427786
141	0x3e893ca1	0.2680407
142	0xbf2da079	-0.67822987
143	0xbffb5716	-1.9635952
144	0x3f20f51a	0.62873995
145	0xbfcc67bc	-1.5969157
146	0xbe2cdcfe	-0.16881177
147	0xbcaa2fc6	-0.020774733
148	0x3db7141d	0.08939383
149	0xbe5e236d	-0.21693201
150	0xbe556143	-0.20837884
151	0xbdeb9fd4	-0.11505094
152	0xbf64f8e0	-0.89442253
153	0xbf74483d	-0.95422727
154	0x3f4563e0	0.7710552
155	0xbf260eaa	-0.64866126
156	0xbf532ea6	-0.82493055
157	0xbf254afb	-0.64567536
158	0xbda195ee	-0.07889925
159	0x3dd808c8	0.1054855
160	0x3eaff2f1	0.34365037
161	0x3df7bab8	0.12096161
162	0xbf1b438f	-0.6064996
163	0x3e307ef2	0.17235926
164	0xbeba513a	-0.36390096
165	0x3ed2d7a3	0.41180143
166	0x3e6f8e40	0.23394108
167	0xbf99aa29	-1.2005054
168	0xbe739424	-0.2378698
169	0xbd6bbaac	-0.05755107
170	0xbd9c9f3a	-0.076475576
171	0xbf026639	-0.5093723
172	0x3e8a485a	0.27008325
173	0x3e3f9913	0.18710737
174	0xbec177ea	-0.377868
175	0x3e31dfcf	0.17370532
176	0xbd91db69	-0.07121927
177	0x3e0d24b0	0.13783526
178	0x3e0e7454	0.13911563
179	0x3ebd6547	0.3699133
180	0xbf4e03ca	-0.8047453
181	0xbe734206	-0.23755655
182	0xbd643d3f	-0.05572247
183	0x3e000982	0.12503627
184	0x3e319fee	0.17346165
185	0x3e825d2a	0.25461704
186	0xbd9cce03	-0.07656481
187	0xbe7fa505	-0.24965294
188	0x3f605a29	0.87637573
189	0x3d3276a6	0.043570183
190	0xbfa04e8d	-1.2523972
191	0x3e30ca1a	0.17264596
192	0xbe1ce91f	-0.15323304
193	0x3d98dcd4	0.074639946
194	0x3ebce11f	0.36890504
195	0xbf5263b4	-0.82183385
196	0xbf049382	-0.5178758
197	0xbfb18cca	-1.387109
198	0x3d8b58e7	0.06804066
199	0xbea64350	-0.3247323
200	0xbf5355ea	-0.8255297
201	0xbea391c4	-0.31947148
202	0xbdce3e7c	-0.10070512
203	0xbf43fb1f	-0.76555055
204	0x3ebef4da	0.37296182
205	0x3ed761a1	0.42066672
206	0x3f4a1347	0.78935665
207	0x3e1d7e4b	0.15380208
208	0xbf4ab03e	-0.79175174
209	0xbf3a25bf	-0.72713846
210	0xbe47fe6b	-0.19530647
211	0xbdde7ebc	-0.108640164
212	0x3e0f4567	0.13991319
213	0xbe727228	-0.2367636
214	0x3e5e5e23	0.21715598
215	0x3fbfe175	1.4990679
216	0x3d7117e7	0.058860686
217	0xbd5639b7	-0.052301135
218	0x3e5b33a2	0.21406415
219	0x3dfb7c9a	0.12279625
220	0x3f80a579	1.0050498
221	0xbe50823c	-0.2036218
222	0xbddcd1e3	-0.1078222
223	0x3e98e1b9	0.29859713
224	0xbf64c544	-0.89363503
225	0xbda305e6	-0.079601094
226	0x3ec8b4f5	0.3920056
227	0x3e3b7966	0.18308029
228	0xbf6e6b0b	-0.93132085
229	0x3e3b0f92	0.18267658
230	0xbdd38f46	-0.103300616
231	0xbcb1007e	-0.02160668
232	0xbd3bd0e4	-0.04585351
233	0x3c909d73	0.017653203
234	0x3f5b634f	0.8569841
235	0x3eb99458	0.3624599
236	0xbdfcc999	-0.12343139
237	0x3ef72422	0.48269755
238	0x3dfdebff	0.12398528
239	0x3e3fe510	0.18739724
240	0x3c92b282	0.017907385
241	0x3da1b914	0.07896629
242	0xbf5854a2	-0.8450414
243	0x3d54566c	0.05184023
244	0x3e455014	0.19268829
245	0x3db241dd	0.08703969
246	0xbeced96a	-0.4040025
247	0x3dab703e	0.08371018
248	0x3de3c268	0.111210644
249	0x3f9261a3	1.1436046
250	0x3c89ccd8	0.01682131
251	0xbecce167	-0.40015718
252	0x3e5201a5	0.2050844
253	0xbfb3eccf	-1.4056643
254	0xbe618026	-0.22021541
255	0xbefcb144	-0.49353993

fc2.bias f4 [128]
0	0x3d0a009f	0.033692
1	0x3e818cf0	0.2530284
2	0x3db8d8f7	0.09025758
3	0xbda5e796	-0.08100812
4	0x3e2a21a2	0.16614392
5	0x3e3deb0c	0.18546695
6	0x3e5be651	0.21474577
7	0x3db2105b	0.08694526
8	0xbbf8a00e	-0.0075874394
9	0x3e72ce07	0.23711406
10	0x3d2a50c8	0.041580945
11	0x3ccdcb93	0.025121486
12	0x3e2269f9	0.15860738
13	0xbbbe7d46	-0.0058132736
14	0x3e5ba83d	0.21450897
15	0x3d80d6f5	0.06291
16	0x3e30b393	0.17256002
17	0x3e2cf8a5	0.16891725
18	0x3d727891	0.059197012
19	0x3df01f65	0.11724738
20	0x3e536515	0.20644028
21	0xbca56d66	-0.020193767
22	0x3e02ae5f	0.1276183
23	0x3e053547	0.13008605
24	0x3e5a77e6	0.213348
25	0xbd9ef9ac	-0.07762465
26	0xbdc38128	-0.09546119
27	0x3d9853ec	0.07437882
28	0x3dbfcadc	0.09364864
29	0x3e553e72	0.20824602
30	0x3d6176c1	0.055044893
31	0x3e20919f	0.1568055
32	0x3e1304c0	0.1435728
33	0xbc991a4f	-0.018689303
34	0x3d29de22	0.041471608
35	0x3e59af7c	0.21258348
36	0xbc8d688c	-0.017261766
37	0x3e534106	0.20630273
38	0x3e27ea29	0.16397919
39	0x3e16c602	0.14723971
40	0x3e101b6f	0.14072965
41	0x3d8e9145	0.06961302
42	0x3d2bf968	0.0419859
43	0x3e0d47ec	0.13796967
44	0x3dd5e6bf	0.10444402
45	0x3e205e1a	0.15660897
46	0x3e269f5a	0.16271725
47	0x3ddf79d2	0.10911907
48	0x3e01a9a2	0.12662366
49	0xbced1e57	-0.028945131
50	0x3cb65504	0.022257335
51	0x3dc6e6d2	0.09711994
52	0xbd6e54e4	-0.058186427
53	0x3d441308	0.047869712
54	0x3e1d50bc	0.15362829
55	0x3e59cbb7	0.21269117
56	0xbb44d395	-0.003003334
57	0xbd1d2dff	-0.038373943
58	0x3e1d835e	0.15382144
59	0xbcb6222e	-0.022233095
60	0xbdddc234	-0.10828057
61	0x3e2f94dd	0.1714663
62	0x3e25e48d	0.16200466
63	0xbc6db567	-0.014508582
64	0x3e3438c3	0.17599778
65	0xbdb2fd50	-0.08739722
66	0xbbd7fed2	-0.0065916562
67	0x3e6dd46e	0.23225567
68	0x3dbe7246	0.0929914
69	0x3e4c7770	0.19967437
70	0x3e4d0484	0.20021254
71	0x3d7c0eb9	0.061537478
72	0xbbd45105	-0.006479385
73	0x3e41f77d	0.18942066
74	0x3d6dbba0	0.05804026
75	0x3e3aee7e	0.1825504
76	0xbcd08c87	-0.025457634
77	0x3b2e51e7	0.002659911
78	0xbe173462	-0.14766076
79	0x3da7a81f	0.081863634
80	0xbdd73696	-0.10508458
81	0x3ca9617a	0.020676363
82	0x3e4f5934	0.20248872
83	0x3e2f75af	0.17134736
84	0x3e130982	0.14359096
85	0x3e01ef42	0.12688926
86	0xbb47b853	-0.0030474856
87	0x3cd9720d	0.026543641
88	0x3e856344	0.26052296
89	0x3e1b9077	0.15191828
90	0x3e436bd9	0.1908411
91	0x3dcf0f75	0.1011037
92	0xbd8f43ea	-0.069953755
93	0x3e454592	0.1926482
94	0x3e5a3f87	0.21313296
95	0x3ce66614	0.028124847
96	0x3da6d3aa	0.081458405
97	0x3d34f913	0.04418285
98	0x3d62a2e4	0.055331126
99	0x3df34003	0.11877444
100	0x3e573de8	0.21019709
101	0x3e3abd47	0.18236266
102	0x3e048985	0.12943085
103	0x3e4a9ff3	0.19787578
104	0x3e06420a	0.1311113
105	0x3d3597d6	0.044334255
106	0x3df6a028	0.12042266
107	0x3c177bc4	0.009245817
108	0x3dda1ddd	0.10650227
109	0xbd5ae32c	-0.053439304
110	0x3dac523d	0.08414123
111	0x3da05fa0	0.07830739
112	0x3ca0bf74	0.019622542
113	0x3e8b7fbb	0.27245888
114	0x3e76d5c9	0.2410499
115	0x3d9089bb	0.0705752
116	0x3df5749e	0.119851336
117	0x3d7fd663	0.062460314
118	0x3e2b1dc9	0.16710581
119	0x3e3787c6	0.17922887
120	0x3e5116b5	0.20418818
121	0x3d22ee30	0.039777935
122	0x3e2a3264	0.16620785
123	0xbd5bc172	-0.05365128
124	0x3e68f21a	0.22748604
125	0xbdd4baa2	-0.1038716
126	0x3e3e3507	0.18574916
127	0x3d33d7a4	0.043906823

fc3.weight f4 [2, 128]
0	0xbe6e51e2	-0.23273423
1	0x3f9b2cde	1.2123067
2	0x3df10415	0.11768357
3	0xbd08f6ed	-0.03343861
4	0x3ecedbc7	0.40402052
5	0x3d68990c	0.056786582
6	0x3e598cb3	0.21245079
7	0xbe6515cf	-0.223716
8	0x3fd2ac20	1.6458778
9	0x3ddffdb1	0.1093706
10	0x3d8c5ae0	0.068532705
11	0x3d923211	0.07138456
12	0x3efac274	0.4897648
13	0x3f16ce74	0.5890877
14	0x3e3231e1	0.1740184
15	0xbffaddd0	-1.9598942
16	0x3dcd89a5	0.10036019
17	0x3da42dbf	0.08016538
18	0xbe230105	-0.15918358
19	0x3d11faf4	0.03563972
20	0x3f543073	0.8288643
21	0xbfb3b327	-1.4039048
22	0x3da804e8	0.08204061
23	0xbf6d919b	-0.928003
24	0x3d3923ad	0.04520004
25	0x3d29bb70	0.04143852
26	0xbca9da08	-0.020733848
27	0x3e592c75	0.21208365
28	0xbd77e169	-0.060517702
29	0x3e737ece	0.23778841
30	0x3f6cf4fb	0.9256131
31	0x3e2f0223	0.17090659
32	0x3f766f2b	0.9626338
33	0x3d49b272	0.049242444
34	0xbfb04b01	-1.3772889
35	0x3c313151	0.010814981
36	0x3fafa948	1.3723536
37	0x3e441e11	0.19152094
38	0x3ef24795	0.47320238
39	0x3e32fc51	0.17479064
40	0x3fd029a6	1.626271
41	0xbfc209f5	-1.5159289
42	0xbcc2843a	-0.023744691
43	0x3f8335e5	1.0250822
44	0x3e30f1d1	0.17279746
45	0x3c6391c0	0.01388973
46	0x3d9261c0	0.071475506
47	0xbd344e41	-0.04401994
48	0x3f6b6ff2	0.9196769
49	0x3d948385	0.07251648
50	0xbd0d848d	-0.03455024
51	0x3e1efcd6	0.15526137
52	0x3f601919	0.87538296
53	0x3fc61e27	1.5477952
54	0x3e7499cf	0.23886798
55	0x3e028057	0.1274427
56	0xbfd3abf4	-1.6536851
57	0xbf850ab6	-1.0393894
58	0x3c3a74e3	0.011380407
59	0x3db4128d	0.08792601
60	0xbc815fdf	-0.015792785
61	0x3e85d3db	0.26138195
62	0x3e4c7e16	0.19969973
63	0xbf4455bb	-0.76693314
64	0x3dfd5758	0.12370175
65	0xbd18c2e8	-0.037295252
66	0x3f95a21f	1.16901
67	0x3f8a79a0	1.0818367
68	0xbf1f96e6	-0.6233963
69	0x3dc3f08c	0.09567365
70	0x3d21438b	0.039371055
71	0xbe0c5d4d	-0.13707466
72	0x3eb1155c	0.34586608
73	0x3d27645a	0.040867187
74	0xbfb10ffb	-1.3833002
75	0x3d2ac15b	0.041688304
76	0x3f425f3c	0.75926566
77	0x3f81b665	1.0133787
78	0x3d4c0024	0.04980482
79	0xbe2299b6	-0.15878949
80	0x3d212d91	0.039350096
81	0xbdd208fa	-0.102556184
82	0x3e09f093	0.13470678
83	0x3ea5d992	0.32392555
84	0x3f95469e	1.1662176
85	0xbcf0df2f	-0.029403297
86	0xbea31d9a	-0.31858522
87	0xbfd1813a	-1.6367562
88	0x3f7d6df3	0.98995894
89	0xbd8bd9cf	-0.06828653
90	0x3cca0d51	0.024664553
91	0xbdc42284	-0.09576896
92	0xbd81145c	-0.06302711
93	0x3e5273d5	0.20551999
94	0x3e87aaf7	0.26497623
95	0xbdd6ed98	-0.10494536
96	0x3d215b2e	0.039393596
97	0x3dbad048	0.09121758
98	0xbd2d37e2	-0.042289622
99	0x3e74bc89	0.23900045
100	0x3d874775	0.06605426
101	0x3fc496f3	1.5358566
102	0x3ef14d59	0.47129324
103	0x3e832e79	0.25621393
104	0x3f046a5f	0.5172481
105	0x3f656073	0.89600295
106	0x3e189a85	0.14902695
107	0x3fa5bc5b	1.2948107
108	0x3dc71bde	0.09722112
109	0x3b3c9838	0.0028777253
110	0xbd41856c	-0.04724638
111	0x3e4a3219	0.19745673
112	0x3f9ae6e2	1.210171
113	0x3dc7f469	0.097634144
114	0x3e4f91c1	0.20270444
115	0x3f64cf77	0.89379066
116	0x3e2fda2e	0.17173073
117	0xbd5c17d1	-0.05373365
118	0x3db2ddd9	0.0873372
119	0x3eabc3ef	0.33547923
120	0xc0248724	-2.5707483
121	0xbd0b3df2	-0.033994623
122	0xbf47d975	-0.7806619
123	0x3d837778	0.06419271
124	0x3d831e1a	0.06402226
125	0xbd0d6dae	-0.034528427
126	0xc040c626	-3.012094
127	0xbd1f6708	-0.038916618
128	0x3e5f6761	0.2181678
129	0xc056aae3	-3.35418
130	0x3e2932fa	0.16523352
131	0x3cf979cc	0.030453585
132	0x3dcf287a	0.10115142
133	0x3e5a2900	0.21304703
134	0x3e3fb1e5	0.18720205
135	0x3f3bb6fa	0.73326075
136	0xbfabf58e	-1.3434312
137	0x3e5518da	0.20810261
138	0xbd711d91	-0.058866087
139	0xbd954bd5	-0.072898544
140	0x3d643f8f	0.055724677
141	0xbe92a019	-0.2863777
142	0x3e3f4246	0.18677625
143	0xbfe0d70c	-1.7565627
144	0x3df432c7	0.119237475
145	0x3e1139a7	0.14182149
146	0x3e4afd69	0.19823231
147	0x3e3cc99e	0.18436286
148	0xc012a287	-2.29117
149	0xbf76687a	-0.9625317
150	0x3e0fbdce	0.14037248
151	0xc00848b6	-2.129438
152	0x3e4ef0f6	0.20209107
153	0xbd76a663	-0.060217272
154	0xbd2843b1	-0.04108018
155	0x3e473a01	0.1945572
156	0x3e7713f8	0.24128711
157	0x3e4811b0	0.19537997
158	0xbf4c26a8	-0.79746485
159	0x3e30b14d	0.17255135
160	0xbfa03993	-1.251757
161	0x3d3f6536	0.04672738
162	0xbfa41d5f	-1.2821463
163	0x3e4de503	0.20106892
164	0xbf442347	-0.7661633
165	0x3e3a90b3	0.18219261
166	0xbfde651f	-1.737461
167	0x3e703253	0.23456697
168	0xbf8b0247	-1.086007
169	0xbf850e9f	-1.0395087
170	0x3e5e963b	0.21736996
171	0xbfac7656	-1.3473613
172	0x3e7d1092	0.24713352
173	0x3e4a7680	0.19771767
174	0x3e41816e	0.1889703
175	0x3e289a80	0.16465187
176	0xbf3d3e1b	-0.7392289
177	0xbd1023ee	-0.035190515
178	0x3d5b2553	0.053502392
179	0x3e3b3879	0.18283261
180	0xbfc31200	-1.5239868
181	0xbf6cba29	-0.9247156
182	0x3dfba689	0.122876234
183	0x3e42df3a	0.19030467
184	0xbeac248a	-0.33621627
185	0xbfa5d417	-1.295535
186	0x3e331873	0.17489795
187	0x3b2e0a27	0.0026556344
188	0xbd4feaa1	-0.05076087
189	0x3e0347b7	0.12820326
190	0x3e1c00b0	0.15234637
191	0x3f87f303	1.0621036
192	0x3e18b44c	0.14912528
193	0xbd3d6f72	-0.04624886
194	0xbf99609c	-1.1982608
195	0xc034dd61	-2.826012
196	0x3eed6c0b	0.46371493
197	0x3e13e826	0.14444026
198	0x3e3a4242	0.18189338
199	0x3e527603	0.2055283
200	0xbfb52d94	-1.4154534
201	0x3e396402	0.18104556
202	0xbfb8b544	-1.4430318
203	0x3e4e5361	0.20148994
204	0xbf026db6	-0.50948656
205	0x3df05b80	0.11736202
206	0xbd4d3fe2	-0.05010975
207	0x3ea761d4	0.32691824
208	0xbd9a5330	-0.07535398
209	0x3e2e6cab	0.17033641
210	0x3e40fd9f	0.18846749
211	0x3db9515d	0.09048722
212	0xbf3652fe	-0.71220386
213	0x3e4ddd4c	0.2010395
214	0x3e73dccf	0.238147
215	0xbffd8bdd	-1.9808308
216	0xc01e1a91	-2.4703715
217	0x3e12e579	0.1434535
218	0x3e62ff47	0.22167693
219	0x3e37301d	0.17889448
220	0xbcf242fc	-0.029572956
221	0x3e225e21	0.1585622
222	0x3df9620a	0.121769026
223	0x3e2e8566	0.17043075
224	0x3dfce412	0.123481885
225	0xbca42c53	-0.020040667
226	0x3e5701f6	0.20996842
227	0x3df2f365	0.1186283
228	0x3e7332f9	0.23749913
229	0xc045f5ea	-3.0931344
230	0x3d3f0f30	0.046645343
231	0x3e83c81a	0.25738603
232	0x3d636fb6	0.055526458
233	0xbf9ccae1	-1.2249414
234	0x3e28451b	0.16432612
235	0x3edfd10f	0.43714187
236	0x3e1592a3	0.14606719
237	0xbcba5a2b	-0.022748074
238	0x3e833efd	0.25633994
239	0x3e5f685f	0.21817158
240	0xbebff04d	-0.37488022
241	0xc06ac215	-3.6680958
242	0x3e52bb35	0.20579226
243	0xbf042d1e	-0.51631343
244	0x3e1c6ed1	0.15276648
245	0x3e6a07d5	0.2285455
246	0x3e47acb5	0.19499476
247	0x3e1f54fc	0.15559763
248	0xbe8ffc5c	-0.28122222
249	0xbfff78f7	-1.995879
250	0xc03a7a02	-2.9136968
251	0x3cf75fe6	0.030197095
252	0x3e4b5231	0.19855572
253	0xbbe9098b	-0.0071117333
254	0x3f28b1a2	0.65896046
255	0x3e40733e	0.18793961

fc3.bias f4 [2]
0	0x3e320389	0.17384161
1	0x3de8cb27	0.11366873
